…
2021-04-20 17:00:26,356 - main.py[line:165] - INFO: ALL  Train  4  7  0.341625  0.865416  0.859243  0.892994  0.87401  0.872412  1.974746  16.374636  0.001  100  False  cuda  1
2021-04-20 17:00:28,504 - main.py[line:165] - INFO: ALL  Train  4  8  0.306875  0.871941  0.891291  0.872551  0.876278  0.879463  1.993604  18.521868  0.001  100  False  cuda  1
2021-04-20 17:00:30,469 - main.py[line:229] - INFO: ALL  Test  4  2  0.554679  0.781369  0.738241  0.899962  0.808206  0.78722  1.96279  20.640241  0.001  50  False  cuda  1
2021-04-20 17:00:33,924 - main.py[line:237] - INFO: Network(
  (bn_text): BatchNorm1d(768, eps=1e-05, momentum=0.1, affine=True, track_running_stats=True)
  (bn_digital): BatchNorm1d(47, eps=1e-05, momentum=0.1, affine=True, track_running_stats=True)
  (fc_text_1): Linear(in_features=768, out_features=128, bias=True)
  (fc_digital_1): Linear(in_features=47, out_features=64, bias=True)
  (fc_connect_1): Linear(in_features=192, out_features=256, bias=True)
  (fc_connect_2): Linear(in_features=256, out_features=128, bias=True)
  (fc_connect_3): Linear(in_features=128, out_features=64, bias=True)
  (fc_connect_4): Linear(in_features=64, out_features=2, bias=True)
)
2021-04-20 17:00:34,191 - main.py[line:33] - DEBUG: 原数据size: (1132, 816)
2021-04-20 17:00:34,203 - main.py[line:35] - DEBUG: 原数据X_size: (1132, 815), y_size: (1132,)
2021-04-20 17:00:34,203 - main.py[line:36] - DEBUG: 原数据y分布: Counter({0: 876, 1: 256})
2021-04-20 17:00:34,203 - main.py[line:51] - DEBUG: 文本数据: (1132, 768)
2021-04-20 17:00:34,203 - main.py[line:52] - DEBUG: 数值数据: (1132, 4)
…
2021-04-20 17:01:57,011 - main.py[line:165] - INFO: demography  Train  4  7  0.322462  0.875204  0.878799  0.897348  0.8863  0.882863  1.931839  17.402949  0.001  100  False  cuda  1
2021-04-20 17:01:59,224 - main.py[line:165] - INFO: demography  Train  4  8  0.28805  0.888254  0.893332  0.909553  0.899006  0.895521  2.059499  19.644912  0.001  100  False  cuda  1
2021-04-20 17:02:01,406 - main.py[line:229] - INFO: demography  Test  4  2  0.607975  0.781369  0.749552  0.832995  0.785652  0.787451  2.179174  21.979663  0.001  50  False  cuda  1
2021-04-20 17:02:01,426 - main.py[line:237] - INFO: Network(
  (bn_text): BatchNorm1d(768, eps=1e-05, momentum=0.1, affine=True, track_running_stats=True)
  (bn_digital): BatchNorm1d(4, eps=1e-05, momentum=0.1, affine=True, track_running_stats=True)
  (fc_text_1): Linear(in_features=768, out_features=128, bias=True)
  (fc_digital_1): Linear(in_features=4, out_features=64, bias=True)
  (fc_connect_1): Linear(in_features=192, out_features=256, bias=True)
  (fc_connect_2): Linear(in_features=256, out_features=128, bias=True)
  (fc_connect_3): Linear(in_features=128, out_features=64, bias=True)
  (fc_connect_4): Linear(in_features=64, out_features=2, bias=True)
)
2021-04-20 17:02:01,687 - main.py[line:33] - DEBUG: 原数据size: (1132, 816)
2021-04-20 17:02:01,699 - main.py[line:35] - DEBUG: 原数据X_size: (1132, 815), y_size: (1132,)
2021-04-20 17:02:01,700 - main.py[line:36] - DEBUG: 原数据y分布: Counter({0: 876, 1: 256})
2021-04-20 17:02:01,700 - main.py[line:51] - DEBUG: 文本数据: (1132, 768)
2021-04-20 17:02:01,700 - main.py[line:52] - DEBUG: 数值数据: (1132, 7)
…
